…
2021-10-30 21:26:35.044594: I tensorflow/stream_executor/cuda/cuda_diagnostics.cc:156] kernel driver does not appear to be running on this host (monesh): /proc/driver/nvidia/version does not exist
2021-10-30 21:26:35.044853: I tensorflow/core/platform/cpu_feature_guard.cc:142] This TensorFlow binary is optimized with oneAPI Deep Neural Network Library (oneDNN) to use the following CPU instructions in performance-critical operations:  AVX2 FMA
To enable them in other operations, rebuild TensorFlow with the appropriate compiler flags.
Model: "sequential"
_________________________________________________________________
Layer (type)                 Output Shape              Param #   
=================================================================
lstm (LSTM)                  (None, 33, 128)           66560     
_________________________________________________________________
dropout (Dropout)            (None, 33, 128)           0         
_________________________________________________________________
lstm_1 (LSTM)                (None, 64)                49408     
_________________________________________________________________
dense (Dense)                (None, 32)                2080      
_________________________________________________________________
dropout_1 (Dropout)          (None, 32)                0         
_________________________________________________________________
dense_1 (Dense)              (None, 16)                528       
_________________________________________________________________
dense_2 (Dense)              (None, 1)                 17        
=================================================================
Total params: 118,593
Trainable params: 118,593
Non-trainable params: 0
_________________________________________________________________
None

